CNN Model Summary
_________________________________________________________________
Layer (type)                 Output Shape              Param #   
=================================================================
conv1d_1 (Conv1D)            (None, 8, 32)             64        
_________________________________________________________________
leaky_re_lu_1 (LeakyReLU)    (None, 8, 32)             0         
_________________________________________________________________
max_pooling1d_1 (MaxPooling1 (None, 4, 32)             0         
_________________________________________________________________
conv1d_2 (Conv1D)            (None, 4, 64)             6208      
_________________________________________________________________
leaky_re_lu_2 (LeakyReLU)    (None, 4, 64)             0         
_________________________________________________________________
max_pooling1d_2 (MaxPooling1 (None, 2, 64)             0         
_________________________________________________________________
dropout_1 (Dropout)          (None, 2, 64)             0         
_________________________________________________________________
conv1d_3 (Conv1D)            (None, 2, 128)            24704     
_________________________________________________________________
leaky_re_lu_3 (LeakyReLU)    (None, 2, 128)            0         
_________________________________________________________________
max_pooling1d_3 (MaxPooling1 (None, 1, 128)            0         
_________________________________________________________________
flatten_1 (Flatten)          (None, 128)               0         
_________________________________________________________________
dense_1 (Dense)              (None, 128)               16512     
_________________________________________________________________
leaky_re_lu_4 (LeakyReLU)    (None, 128)               0         
_________________________________________________________________
dense_2 (Dense)              (None, 3)                 387       
=================================================================
Total params: 47,875
Trainable params: 47,875
Non-trainable params: 0
_________________________________________________________________
Train on 93 samples, validate on 24 samples
Epoch 1/150

64/93 [===================>..........] - ETA: 0s - loss: 1.1540 - acc: 0.3281
93/93 [==============================] - 1s 6ms/step - loss: 1.1264 - acc: 0.2796 - val_loss: 0.9422 - val_acc: 0.3750
…
